…
/MLP_GA$ python3 mlp_ga.py 
Using TensorFlow backend.
start of evolution
optimizer is SGD lr = 0.01
 load mnist data
  build mlp model

        optimizer:	<keras.optimizers.SGD object at 0x7fa3554983c8>
        dense1:	256
        dense2:	32
        drop1:	0.31510952715944257
        drop2:	0.20198048478423647
        activation:	sigmoid
        batch_size:\512
        
_________________________________________________________________
Layer (type)                 Output Shape              Param #   
=================================================================
dense_1 (Dense)              (None, 256)               200960    
_________________________________________________________________
activation_1 (Activation)    (None, 256)               0         
_________________________________________________________________
dropout_1 (Dropout)          (None, 256)               0         
_________________________________________________________________
dense_2 (Dense)              (None, 32)                8224      
_________________________________________________________________
activation_2 (Activation)    (None, 32)                0         
_________________________________________________________________
dropout_2 (Dropout)          (None, 32)                0         
_________________________________________________________________
dense_3 (Dense)              (None, 10)                330       
_________________________________________________________________
activation_3 (Activation)    (None, 10)                0         
=================================================================
Total params: 209,514
Trainable params: 209,514
Non-trainable params: 0
_________________________________________________________________
2018-10-22 17:33:17.293489: I tensorflow/core/platform/cpu_feature_guard.cc:140] Your CPU supports instructions that this TensorFlow binary was not compiled to use: AVX2 AVX512F FMA
2018-10-22 17:33:17.571680: I tensorflow/core/common_runtime/gpu/gpu_device.cc:1356] Found device 0 with properties: 
…
2018-10-22 17:33:18.407396: I tensorflow/core/common_runtime/gpu/gpu_device.cc:1053] Created TensorFlow device (/job:localhost/replica:0/task:0/device:GPU:1 with 9768 MB memory) -> physical GPU (device: 1, name: GeForce GTX 1080 Ti, pci bus id: 0000:65:00.0, compute capability: 6.1)
[0.9195258224487305, 0.7576000004768372]
optimizer is SGD lr = 0.01
 load mnist data
  build mlp model

        optimizer:	<keras.optimizers.SGD object at 0x7fa352767940>
        dense1:	128
        dense2:	1024
        drop1:	0.45634496138988057
        drop2:	0.31627557353342245
        activation:	sigmoid
        batch_size:\32
        
_________________________________________________________________
Layer (type)                 Output Shape              Param #   
=================================================================
dense_4 (Dense)              (None, 128)               100480    
_________________________________________________________________
activation_4 (Activation)    (None, 128)               0         
_________________________________________________________________
dropout_3 (Dropout)          (None, 128)               0         
_________________________________________________________________
dense_5 (Dense)              (None, 1024)              132096    
_________________________________________________________________
activation_5 (Activation)    (None, 1024)              0         
_________________________________________________________________
dropout_4 (Dropout)          (None, 1024)              0         
_________________________________________________________________
dense_6 (Dense)              (None, 10)                10250     
_________________________________________________________________
activation_6 (Activation)    (None, 10)                0         
=================================================================
Total params: 242,826
Trainable params: 242,826
Non-trainable params: 0
_________________________________________________________________
Epoch 00026: early stopping
[0.33429458385705946, 0.9017]
optimizer is SGD lr = 0.01
 load mnist data
  build mlp model

        optimizer:	<keras.optimizers.SGD object at 0x7fa3520b9780>
        dense1:	256
        dense2:	256
        drop1:	0.09912997380379063
        drop2:	0.012305144532270385
        activation:	sigmoid
        batch_size:\128
        
_________________________________________________________________
Layer (type)                 Output Shape              Param #   
=================================================================
dense_7 (Dense)              (None, 256)               200960    
_________________________________________________________________
activation_7 (Activation)    (None, 256)               0         
_________________________________________________________________
dropout_5 (Dropout)          (None, 256)               0         
_________________________________________________________________
dense_8 (Dense)              (None, 256)               65792     
_________________________________________________________________
activation_8 (Activation)    (None, 256)               0         
_________________________________________________________________
dropout_6 (Dropout)          (None, 256)               0         
_________________________________________________________________
dense_9 (Dense)              (None, 10)                2570      
_________________________________________________________________
activation_9 (Activation)    (None, 10)                0         
=================================================================
Total params: 269,322
Trainable params: 269,322
Non-trainable params: 0
_________________________________________________________________
[0.31068558752536773, 0.9101]
optimizer is Adam
 load mnist data
  build mlp model

        optimizer:	<keras.optimizers.Adam object at 0x7fa351e4b6d8>
        dense1:	64
        dense2:	32
        drop1:	0.29334818588837985
        drop2:	0.47501795585781736
        activation:	sigmoid
        batch_size:\64
        
_________________________________________________________________
Layer (type)                 Output Shape              Param #   
=================================================================
dense_10 (Dense)             (None, 64)                50240     
_________________________________________________________________
activation_10 (Activation)   (None, 64)                0         
_________________________________________________________________
dropout_7 (Dropout)          (None, 64)                0         
_________________________________________________________________
dense_11 (Dense)             (None, 32)                2080      
_________________________________________________________________
activation_11 (Activation)   (None, 32)                0         
_________________________________________________________________
dropout_8 (Dropout)          (None, 32)                0         
_________________________________________________________________
dense_12 (Dense)             (None, 10)                330       
_________________________________________________________________
activation_12 (Activation)   (None, 10)                0         
=================================================================
Total params: 52,650
Trainable params: 52,650
Non-trainable params: 0
_________________________________________________________________
Epoch 00020: early stopping
[0.14797958068996667, 0.9556]
optimizer is SGD lr = 0.001
 load mnist data
  build mlp model

        optimizer:	<keras.optimizers.SGD object at 0x7fa351df6390>
        dense1:	64
        dense2:	32
        drop1:	0.40747622411528084
        drop2:	0.3848398829191119
        activation:	sigmoid
        batch_size:\128
        
_________________________________________________________________
Layer (type)                 Output Shape              Param #   
=================================================================
dense_13 (Dense)             (None, 64)                50240     
_________________________________________________________________
activation_13 (Activation)   (None, 64)                0         
_________________________________________________________________
dropout_9 (Dropout)          (None, 64)                0         
_________________________________________________________________
dense_14 (Dense)             (None, 32)                2080      
_________________________________________________________________
activation_14 (Activation)   (None, 32)                0         
_________________________________________________________________
dropout_10 (Dropout)         (None, 32)                0         
_________________________________________________________________
dense_15 (Dense)             (None, 10)                330       
_________________________________________________________________
activation_15 (Activation)   (None, 10)                0         
=================================================================
Total params: 52,650
Trainable params: 52,650
Non-trainable params: 0
_________________________________________________________________
[2.143048069381714, 0.4679]
 5 の個体を評価 
 -- 0 世代 --
mate
mate
mutate
optimizer is SGD lr = 0.01
 load mnist data
  build mlp model

        optimizer:	<keras.optimizers.SGD object at 0x7fa351d5fb38>
        dense1:	64
        dense2:	256
        drop1:	0.09912997380379063
        drop2:	0.012305144532270385
        activation:	sigmoid
        batch_size:\128
        
_________________________________________________________________
Layer (type)                 Output Shape              Param #   
=================================================================
dense_16 (Dense)             (None, 64)                50240     
_________________________________________________________________
activation_16 (Activation)   (None, 64)                0         
_________________________________________________________________
dropout_11 (Dropout)         (None, 64)                0         
_________________________________________________________________
dense_17 (Dense)             (None, 256)               16640     
_________________________________________________________________
activation_17 (Activation)   (None, 256)               0         
_________________________________________________________________
dropout_12 (Dropout)         (None, 256)               0         
_________________________________________________________________
dense_18 (Dense)             (None, 10)                2570      
_________________________________________________________________
activation_18 (Activation)   (None, 10)                0         
=================================================================
Total params: 69,450
Trainable params: 69,450
Non-trainable params: 0
_________________________________________________________________
[0.33430572485923765, 0.9035]
optimizer is Adam
 load mnist data
  build mlp model

        optimizer:	<keras.optimizers.Adam object at 0x7fa351bc7be0>
        dense1:	256
        dense2:	32
        drop1:	0.29334818588837985
        drop2:	0.47501795585781736
        activation:	sigmoid
        batch_size:\64
        
_________________________________________________________________
Layer (type)                 Output Shape              Param #   
=================================================================
dense_19 (Dense)             (None, 256)               200960    
_________________________________________________________________
activation_19 (Activation)   (None, 256)               0         
_________________________________________________________________
dropout_13 (Dropout)         (None, 256)               0         
_________________________________________________________________
dense_20 (Dense)             (None, 32)                8224      
_________________________________________________________________
activation_20 (Activation)   (None, 32)                0         
_________________________________________________________________
dropout_14 (Dropout)         (None, 32)                0         
_________________________________________________________________
dense_21 (Dense)             (None, 10)                330       
_________________________________________________________________
activation_21 (Activation)   (None, 10)                0         
=================================================================
Total params: 209,514
Trainable params: 209,514
Non-trainable params: 0
_________________________________________________________________
Epoch 00021: early stopping
[0.088631895424705, 0.9755]
optimizer is Adam
 load mnist data
  build mlp model

        optimizer:	<keras.optimizers.Adam object at 0x7fa355498400>
        dense1:	64
        dense2:	32
        drop1:	0.45634496138988057
        drop2:	0.31627557353342245
        activation:	sigmoid
        batch_size:\32
        
_________________________________________________________________
Layer (type)                 Output Shape              Param #   
=================================================================
dense_22 (Dense)             (None, 64)                50240     
_________________________________________________________________
activation_22 (Activation)   (None, 64)                0         
_________________________________________________________________
dropout_15 (Dropout)         (None, 64)                0         
_________________________________________________________________
dense_23 (Dense)             (None, 32)                2080      
_________________________________________________________________
activation_23 (Activation)   (None, 32)                0         
_________________________________________________________________
dropout_16 (Dropout)         (None, 32)                0         
_________________________________________________________________
dense_24 (Dense)             (None, 10)                330       
_________________________________________________________________
activation_24 (Activation)   (None, 10)                0         
=================================================================
Total params: 52,650
Trainable params: 52,650
Non-trainable params: 0
_________________________________________________________________
Epoch 00021: early stopping
[0.14802969877757133, 0.958]
optimizer is SGD lr = 0.01
 load mnist data
  build mlp model

        optimizer:	<keras.optimizers.SGD object at 0x7fa351bd62b0>
        dense1:	128
        dense2:	1024
        drop1:	0.29334818588837985
        drop2:	0.47501795585781736
        activation:	sigmoid
        batch_size:\64
        
_________________________________________________________________
Layer (type)                 Output Shape              Param #   
=================================================================
dense_25 (Dense)             (None, 128)               100480    
_________________________________________________________________
activation_25 (Activation)   (None, 128)               0         
_________________________________________________________________
dropout_17 (Dropout)         (None, 128)               0         
_________________________________________________________________
dense_26 (Dense)             (None, 1024)              132096    
_________________________________________________________________
activation_26 (Activation)   (None, 1024)              0         
_________________________________________________________________
dropout_18 (Dropout)         (None, 1024)              0         
_________________________________________________________________
dense_27 (Dense)             (None, 10)                10250     
_________________________________________________________________
activation_27 (Activation)   (None, 10)                0         
=================================================================
Total params: 242,826
Trainable params: 242,826
Non-trainable params: 0
_________________________________________________________________
Epoch 00049: early stopping
[0.35729187965393067, 0.8949]
 4 の個体を評価 
  Min 0.088631895424705
  Max 0.35729187965393067
  Avg 0.21524775588108228
  Std 0.10901943293653837
 -- 1 世代 --
mate
optimizer is Adam
 load mnist data
  build mlp model

        optimizer:	<keras.optimizers.Adam object at 0x7fa35129f4e0>
        dense1:	256
        dense2:	32
        drop1:	0.45634496138988057
        drop2:	0.31627557353342245
        activation:	sigmoid
        batch_size:\32
        
_________________________________________________________________
Layer (type)                 Output Shape              Param #   
=================================================================
dense_28 (Dense)             (None, 256)               200960    
_________________________________________________________________
activation_28 (Activation)   (None, 256)               0         
_________________________________________________________________
dropout_19 (Dropout)         (None, 256)               0         
_________________________________________________________________
dense_29 (Dense)             (None, 32)                8224      
_________________________________________________________________
activation_29 (Activation)   (None, 32)                0         
_________________________________________________________________
dropout_20 (Dropout)         (None, 32)                0         
_________________________________________________________________
dense_30 (Dense)             (None, 10)                330       
_________________________________________________________________
activation_30 (Activation)   (None, 10)                0         
=================================================================
Total params: 209,514
Trainable params: 209,514
Non-trainable params: 0
_________________________________________________________________
Epoch 00015: early stopping
[0.08335819719175343, 0.9758]
optimizer is Adam
 load mnist data
  build mlp model

        optimizer:	<keras.optimizers.Adam object at 0x7fa3e3c487b8>
        dense1:	64
        dense2:	32
        drop1:	0.29334818588837985
        drop2:	0.47501795585781736
        activation:	sigmoid
        batch_size:\64
        
_________________________________________________________________
Layer (type)                 Output Shape              Param #   
=================================================================
dense_31 (Dense)             (None, 64)                50240     
_________________________________________________________________
activation_31 (Activation)   (None, 64)                0         
_________________________________________________________________
dropout_21 (Dropout)         (None, 64)                0         
_________________________________________________________________
dense_32 (Dense)             (None, 32)                2080      
_________________________________________________________________
activation_32 (Activation)   (None, 32)                0         
_________________________________________________________________
dropout_22 (Dropout)         (None, 32)                0         
_________________________________________________________________
dense_33 (Dense)             (None, 10)                330       
_________________________________________________________________
activation_33 (Activation)   (None, 10)                0         
=================================================================
Total params: 52,650
Trainable params: 52,650
Non-trainable params: 0
_________________________________________________________________
Epoch 00021: early stopping
[0.14833881437927485, 0.9573]
 2 の個体を評価 
  Min 0.08335819719175343
  Max 0.14833881437927485
  Avg 0.09951853956902866
  Std 0.0244954402306801
 -- 2 世代 --
mate
…
optimizer is Adam
 load mnist data
  build mlp model
 4 の個体を評価 
 -- 3 世代 --
mutate
optimizer is Adam
 load mnist data
  build mlp model

        optimizer:	<keras.optimizers.Adam object at 0x7fa3b33b5748>
        dense1:	256
        dense2:	32
        drop1:	0.29334818588837985
        drop2:	0.31627557353342245
        activation:	sigmoid
        batch_size:\32
        
_________________________________________________________________
Layer (type)                 Output Shape              Param #   
=================================================================
dense_36 (Dense)             (None, 256)               200960    
_________________________________________________________________
activation_35 (Activation)   (None, 256)               0         
_________________________________________________________________
dropout_24 (Dropout)         (None, 256)               0         
_________________________________________________________________
dense_37 (Dense)             (None, 32)                8224      
_________________________________________________________________
activation_36 (Activation)   (None, 32)                0         
_________________________________________________________________
dropout_25 (Dropout)         (None, 32)                0         
_________________________________________________________________
dense_38 (Dense)             (None, 10)                330       
_________________________________________________________________
activation_37 (Activation)   (None, 10)                0         
=================================================================
Total params: 209,514
Trainable params: 209,514
Non-trainable params: 0
_________________________________________________________________
Epoch 00016: early stopping
[0.08036786787406308, 0.9768]
optimizer is Adam
 load mnist data
  build mlp model

        optimizer:	<keras.optimizers.Adam object at 0x7fa3b33b56d8>
        dense1:	256
        dense2:	32
        drop1:	0.29334818588837985
        drop2:	0.31627557353342245
        activation:	sigmoid
        batch_size:\32
        
_________________________________________________________________
Layer (type)                 Output Shape              Param #   
=================================================================
dense_39 (Dense)             (None, 256)               200960    
_________________________________________________________________
activation_38 (Activation)   (None, 256)               0         
_________________________________________________________________
dropout_26 (Dropout)         (None, 256)               0         
_________________________________________________________________
dense_40 (Dense)             (None, 32)                8224      
_________________________________________________________________
activation_39 (Activation)   (None, 32)                0         
_________________________________________________________________
dropout_27 (Dropout)         (None, 32)                0         
_________________________________________________________________
dense_41 (Dense)             (None, 10)                330       
_________________________________________________________________
activation_40 (Activation)   (None, 10)                0         
=================================================================
Total params: 209,514
Trainable params: 209,514
Non-trainable params: 0
_________________________________________________________________
Epoch 00012: early stopping
[0.0787749367087381, 0.9773]
optimizer is Adam
 load mnist data
  build mlp model

        optimizer:	<keras.optimizers.Adam object at 0x7fa350cd1710>
        dense1:	256
        dense2:	32
        drop1:	0.45634496138988057
        drop2:	0.47501795585781736
        activation:	sigmoid
        batch_size:\64
        
_________________________________________________________________
Layer (type)                 Output Shape              Param #   
=================================================================
dense_42 (Dense)             (None, 256)               200960    
_________________________________________________________________
activation_41 (Activation)   (None, 256)               0         
_________________________________________________________________
dropout_28 (Dropout)         (None, 256)               0         
_________________________________________________________________
dense_43 (Dense)             (None, 32)                8224      
_________________________________________________________________
activation_42 (Activation)   (None, 32)                0         
_________________________________________________________________
dropout_29 (Dropout)         (None, 32)                0         
_________________________________________________________________
dense_44 (Dense)             (None, 10)                330       
_________________________________________________________________
activation_43 (Activation)   (None, 10)                0         
=================================================================
Total params: 209,514
Trainable params: 209,514
Non-trainable params: 0
_________________________________________________________________
Epoch 00023: early stopping
[0.09294235927704722, 0.974]
 3 の個体を評価 
  Min 0.0787749367087381
  Max 0.09294235927704722
  Avg 0.08586979094185168
  Std 0.005401625296841607
 -- 4 世代 --
mate
mutate
optimizer is Adam
 load mnist data
  build mlp model

        optimizer:	<keras.optimizers.Adam object at 0x7fa3504f8cc0>
        dense1:	256
        dense2:	32
        drop1:	0.29334818588837985
        drop2:	0.31627557353342245
        activation:	sigmoid
        batch_size:\32
        
_________________________________________________________________
Layer (type)                 Output Shape              Param #   
=================================================================
dense_45 (Dense)             (None, 256)               200960    
_________________________________________________________________
activation_44 (Activation)   (None, 256)               0         
_________________________________________________________________
dropout_30 (Dropout)         (None, 256)               0         
_________________________________________________________________
dense_46 (Dense)             (None, 32)                8224      
_________________________________________________________________
activation_45 (Activation)   (None, 32)                0         
_________________________________________________________________
dropout_31 (Dropout)         (None, 32)                0         
_________________________________________________________________
dense_47 (Dense)             (None, 10)                330       
_________________________________________________________________
activation_46 (Activation)   (None, 10)                0         
=================================================================
Total params: 209,514
Trainable params: 209,514
Non-trainable params: 0
_________________________________________________________________
Epoch 00013: early stopping
[0.08434495481986087, 0.9756]
optimizer is Adam
 load mnist data
  build mlp model

        optimizer:	<keras.optimizers.Adam object at 0x7fa3500cd780>
        dense1:	256
        dense2:	32
        drop1:	0.29334818588837985
        drop2:	0.31627557353342245
        activation:	sigmoid
        batch_size:\32
        
_________________________________________________________________
Layer (type)                 Output Shape              Param #   
=================================================================
dense_48 (Dense)             (None, 256)               200960    
_________________________________________________________________
activation_47 (Activation)   (None, 256)               0         
_________________________________________________________________
dropout_32 (Dropout)         (None, 256)               0         
_________________________________________________________________
dense_49 (Dense)             (None, 32)                8224      
_________________________________________________________________
activation_48 (Activation)   (None, 32)                0         
_________________________________________________________________
dropout_33 (Dropout)         (None, 32)                0         
_________________________________________________________________
dense_50 (Dense)             (None, 10)                330       
_________________________________________________________________
activation_49 (Activation)   (None, 10)                0         
=================================================================
Total params: 209,514
Trainable params: 209,514
Non-trainable params: 0
_________________________________________________________________
Epoch 00016: early stopping
[0.07580037867593928, 0.9793]
 2 の個体を評価 
  Min 0.07580037867593928
  Max 0.08434495481986087
  Avg 0.07961261495746788
  Std 0.0027893369356969612
 -- 5 世代 --
mate
mate
mutate
mutate
optimizer is Adam
 load mnist data
  build mlp model

        optimizer:	<keras.optimizers.Adam object at 0x7fa350243a20>
        dense1:	256
        dense2:	32
        drop1:	0.29334818588837985
        drop2:	0.31627557353342245
        activation:	sigmoid
        batch_size:\32
        
_________________________________________________________________
Layer (type)                 Output Shape              Param #   
=================================================================
dense_51 (Dense)             (None, 256)               200960    
_________________________________________________________________
activation_50 (Activation)   (None, 256)               0         
_________________________________________________________________
dropout_34 (Dropout)         (None, 256)               0         
_________________________________________________________________
dense_52 (Dense)             (None, 32)                8224      
_________________________________________________________________
activation_51 (Activation)   (None, 32)                0         
_________________________________________________________________
dropout_35 (Dropout)         (None, 32)                0         
_________________________________________________________________
dense_53 (Dense)             (None, 10)                330       
_________________________________________________________________
activation_52 (Activation)   (None, 10)                0         
=================================================================
Total params: 209,514
Trainable params: 209,514
Non-trainable params: 0
_________________________________________________________________
Epoch 00013: early stopping
[0.08441211448132527, 0.975]
optimizer is Adam
 load mnist data
  build mlp model

        optimizer:	<keras.optimizers.Adam object at 0x7fa3490bf6a0>
        dense1:	256
        dense2:	32
        drop1:	0.29334818588837985
        drop2:	0.31627557353342245
        activation:	sigmoid
        batch_size:\32
        
_________________________________________________________________
Layer (type)                 Output Shape              Param #   
=================================================================
dense_54 (Dense)             (None, 256)               200960    
_________________________________________________________________
activation_53 (Activation)   (None, 256)               0         
_________________________________________________________________
dropout_36 (Dropout)         (None, 256)               0         
_________________________________________________________________
dense_55 (Dense)             (None, 32)                8224      
_________________________________________________________________
activation_54 (Activation)   (None, 32)                0         
_________________________________________________________________
dropout_37 (Dropout)         (None, 32)                0         
_________________________________________________________________
dense_56 (Dense)             (None, 10)                330       
_________________________________________________________________
activation_55 (Activation)   (None, 10)                0         
=================================================================
Total params: 209,514
Trainable params: 209,514
Non-trainable params: 0
_________________________________________________________________
Epoch 00012: early stopping
[0.082021638095635, 0.9753]
optimizer is Adam
 load mnist data
  build mlp model

        optimizer:	<keras.optimizers.Adam object at 0x7fa3515c3e10>
        dense1:	256
        dense2:	32
        drop1:	0.29334818588837985
        drop2:	0.31627557353342245
        activation:	sigmoid
        batch_size:\32
        
_________________________________________________________________
Layer (type)                 Output Shape              Param #   
=================================================================
dense_57 (Dense)             (None, 256)               200960    
_________________________________________________________________
activation_56 (Activation)   (None, 256)               0         
_________________________________________________________________
dropout_38 (Dropout)         (None, 256)               0         
_________________________________________________________________
dense_58 (Dense)             (None, 32)                8224      
_________________________________________________________________
activation_57 (Activation)   (None, 32)                0         
_________________________________________________________________
dropout_39 (Dropout)         (None, 32)                0         
_________________________________________________________________
dense_59 (Dense)             (None, 10)                330       
_________________________________________________________________
activation_58 (Activation)   (None, 10)                0         
=================================================================
Total params: 209,514
Trainable params: 209,514
Non-trainable params: 0
_________________________________________________________________
Epoch 00011: early stopping
[0.08629026965694502, 0.974]
optimizer is Adam
 load mnist data
  build mlp model
 5 の個体を評価 
 -- 6 世代 --
mate
optimizer is Adam
 load mnist data
  build mlp model

        optimizer:	<keras.optimizers.Adam object at 0x7fa350504438>
        dense1:	256
        dense2:	32
        drop1:	0.29334818588837985
        drop2:	0.31627557353342245
        activation:	sigmoid
        batch_size:\32
        
_________________________________________________________________
Layer (type)                 Output Shape              Param #   
=================================================================
dense_63 (Dense)             (None, 256)               200960    
_________________________________________________________________
activation_61 (Activation)   (None, 256)               0         
_________________________________________________________________
dropout_42 (Dropout)         (None, 256)               0         
_________________________________________________________________
dense_64 (Dense)             (None, 32)                8224      
_________________________________________________________________
activation_62 (Activation)   (None, 32)                0         
_________________________________________________________________
dropout_43 (Dropout)         (None, 32)                0         
_________________________________________________________________
dense_65 (Dense)             (None, 10)                330       
_________________________________________________________________
activation_63 (Activation)   (None, 10)                0         
=================================================================
Total params: 209,514
Trainable params: 209,514
Non-trainable params: 0
_________________________________________________________________
Epoch 00012: early stopping
[0.0849913785357494, 0.9739]
optimizer is Adam
 load mnist data
  build mlp model

        optimizer:	<keras.optimizers.Adam object at 0x7fa35181f6d8>
        dense1:	256
        dense2:	32
        drop1:	0.29334818588837985
        drop2:	0.31627557353342245
        activation:	sigmoid
        batch_size:\32
        
_________________________________________________________________
Layer (type)                 Output Shape              Param #   
=================================================================
dense_66 (Dense)             (None, 256)               200960    
_________________________________________________________________
activation_64 (Activation)   (None, 256)               0         
_________________________________________________________________
dropout_44 (Dropout)         (None, 256)               0         
_________________________________________________________________
dense_67 (Dense)             (None, 32)                8224      
_________________________________________________________________
activation_65 (Activation)   (None, 32)                0         
_________________________________________________________________
dropout_45 (Dropout)         (None, 32)                0         
_________________________________________________________________
dense_68 (Dense)             (None, 10)                330       
_________________________________________________________________
activation_66 (Activation)   (None, 10)                0         
=================================================================
Total params: 209,514
Trainable params: 209,514
Non-trainable params: 0
_________________________________________________________________
Epoch 00012: early stopping
[0.08273472452952992, 0.9749]
 2 の個体を評価 
  Min 0.082021638095635
  Max 0.0849913785357494
  Avg 0.0832362987475749
  Std 0.0012381619762815012
 -- 7 世代 --
mate
…
  Max 0.08898098463602364
  Avg 0.08400913625887128
  Std 0.002534062323643848
 -- 8 世代 --
mate
mate
optimizer is Adam
 load mnist data
  build mlp model

        optimizer:	<keras.optimizers.Adam object at 0x7fa356cdcba8>
        dense1:	256
        dense2:	32
        drop1:	0.29334818588837985
        drop2:	0.31627557353342245
        activation:	sigmoid
        batch_size:\32
        
_________________________________________________________________
Layer (type)                 Output Shape              Param #   
=================================================================
dense_75 (Dense)             (None, 256)               200960    
_________________________________________________________________
activation_73 (Activation)   (None, 256)               0         
_________________________________________________________________
dropout_50 (Dropout)         (None, 256)               0         
_________________________________________________________________
dense_76 (Dense)             (None, 32)                8224      
_________________________________________________________________
activation_74 (Activation)   (None, 32)                0         
_________________________________________________________________
dropout_51 (Dropout)         (None, 32)                0         
_________________________________________________________________
dense_77 (Dense)             (None, 10)                330       
_________________________________________________________________
activation_75 (Activation)   (None, 10)                0         
=================================================================
Total params: 209,514
Trainable params: 209,514
Non-trainable params: 0
_________________________________________________________________
Epoch 00009: early stopping
[0.09001250675814226, 0.9733]
optimizer is Adam
 load mnist data
  build mlp model

        optimizer:	<keras.optimizers.Adam object at 0x7fa349793160>
        dense1:	256
        dense2:	32
        drop1:	0.29334818588837985
        drop2:	0.31627557353342245
        activation:	sigmoid
        batch_size:\32
        
_________________________________________________________________
Layer (type)                 Output Shape              Param #   
=================================================================
dense_78 (Dense)             (None, 256)               200960    
_________________________________________________________________
activation_76 (Activation)   (None, 256)               0         
_________________________________________________________________
dropout_52 (Dropout)         (None, 256)               0         
_________________________________________________________________
dense_79 (Dense)             (None, 32)                8224      
_________________________________________________________________
activation_77 (Activation)   (None, 32)                0         
_________________________________________________________________
dropout_53 (Dropout)         (None, 32)                0         
_________________________________________________________________
dense_80 (Dense)             (None, 10)                330       
_________________________________________________________________
activation_78 (Activation)   (None, 10)                0         
=================================================================
Total params: 209,514
Trainable params: 209,514
Non-trainable params: 0
_________________________________________________________________
Epoch 00012: early stopping
[0.0834924804508686, 0.9752]
optimizer is Adam
 load mnist data
  build mlp model

        optimizer:	<keras.optimizers.Adam object at 0x7fa3477ff550>
        dense1:	256
        dense2:	32
        drop1:	0.29334818588837985
        drop2:	0.31627557353342245
        activation:	sigmoid
        batch_size:\32
        
_________________________________________________________________
Layer (type)                 Output Shape              Param #   
=================================================================
dense_81 (Dense)             (None, 256)               200960    
_________________________________________________________________
activation_79 (Activation)   (None, 256)               0         
_________________________________________________________________
dropout_54 (Dropout)         (None, 256)               0         
_________________________________________________________________
dense_82 (Dense)             (None, 32)                8224      
_________________________________________________________________
activation_80 (Activation)   (None, 32)                0         
_________________________________________________________________
dropout_55 (Dropout)         (None, 32)                0         
_________________________________________________________________
dense_83 (Dense)             (None, 10)                330       
_________________________________________________________________
activation_81 (Activation)   (None, 10)                0         
=================================================================
Total params: 209,514
Trainable params: 209,514
Non-trainable params: 0
_________________________________________________________________
Epoch 00013: early stopping
[0.0815794098227052, 0.975]
optimizer is Adam
 load mnist data
  build mlp model

        optimizer:	<keras.optimizers.Adam object at 0x7fa347dd5f28>
        dense1:	256
        dense2:	32
        drop1:	0.29334818588837985
        drop2:	0.31627557353342245
        activation:	sigmoid
        batch_size:\32
        
_________________________________________________________________
Layer (type)                 Output Shape              Param #   
=================================================================
dense_84 (Dense)             (None, 256)               200960    
_________________________________________________________________
activation_82 (Activation)   (None, 256)               0         
_________________________________________________________________
dropout_56 (Dropout)         (None, 256)               0         
_________________________________________________________________
dense_85 (Dense)             (None, 32)                8224      
_________________________________________________________________
activation_83 (Activation)   (None, 32)                0         
_________________________________________________________________
dropout_57 (Dropout)         (None, 32)                0         
_________________________________________________________________
dense_86 (Dense)             (None, 10)                330       
_________________________________________________________________
activation_84 (Activation)   (None, 10)                0         
=================================================================
Total params: 209,514
Trainable params: 209,514
Non-trainable params: 0
_________________________________________________________________
Epoch 00009: early stopping
[0.09580618900209666, 0.9715]
 4 の個体を評価 
  Min 0.0815794098227052
  Max 0.09580618900209666
  Avg 0.08689283910749014
  Std 0.005291358757736344
 -- 9 世代 --
mate
…
